DQN.pth (torch, 253264 bytes, 8 tensors)

weight f4 [64, 16]
000000 88 fb b5 be f7 58 be be ec e1 a3 bd 2a 6b f2 be
       -0.35543466 -0.3717725 -0.080020756 -0.47347385
000010 12 8a 1a be 40 55 70 3c 6e 70 9d be e2 b0 59 be
       -0.15091732 0.014668763 -0.3074984 -0.21258882
000020 e6 9e 23 be c4 44 ef bd 14 da c8 bd a0 8f a4 bd
       -0.15978584 -0.11683038 -0.0980722 -0.08035207
000030 a8 e3 40 3d 94 b4 8d be 5c 2e 9f bd 6b c7 d1 be
       0.04709211 -0.27676833 -0.07772514 -0.40972456
000040 77 00 d9 be 27 cd f4 be 6e b2 d4 be e6 b9 e9 be
       -0.42383167 -0.4781277 -0.4154238 -0.45649642
000050 30 25 08 bd 10 e5 b8 3c f0 e1 ca bd 70 17 19 be
       -0.03323859 0.022570163 -0.099063754 -0.14950347
000060 30 0d c9 bc 30 37 3e be 2c 61 90 bd a4 61 c9 bd
       -0.024542421 -0.1857574 -0.07049784 -0.098330766
000070 80 c6 91 bd c6 5f 16 be a7 51 db be 7b d5 6e 3f
       -0.07117939 -0.14684972 -0.42835733 0.93294495
000080 9e a3 13 bf 20 ff 06 be cc cb 4e be 0e 74 76 be
       -0.57671535 -0.1318326 -0.2019493 -0.24067709
000090 ff e4 3d be 6e cd 1a 3e 40 f9 0f bf 14 f6 8b bd
       -0.18544386 0.15117428 -0.562397 -0.06834045
0000a0 84 2a 04 bf f0 35 ef be 3c 0d 7b be 5c 6d 14 be
       -0.51627374 -0.4672084 -0.24516767 -0.14494842
0000b0 40 9e 4a bd be 6a 00 bf f0 fb 22 bf c2 61 44 be
       -0.049467325 -0.50162876 -0.63665676 -0.19177917
0000c0 df 70 ee be 90 bd 45 3d 0a a1 6b be e2 9b 09 be
       -0.4657049 0.048276484 -0.2301065 -0.13438371
0000d0 da b5 fa be 2a 4f 4e be aa e0 e3 be 10 e7 25 3d
       -0.48966867 -0.20147386 -0.44507343 0.04050356
0000e0 ca 2e 84 be 9a ae 18 be 9c 2c 86 be 50 48 a5 bd
       -0.25816947 -0.14910355 -0.2620591 -0.08070433
0000f0 10 60 de 3c d0 48 f5 bd 54 df 9c bd 60 ac 2f bc
       0.027145416 -0.119767785 -0.07659784 -0.01072225
000100 6c f9 0c bf c1 6f e8 be a4 1e 45 bf f5 8e 22 bf
       -0.5506809 -0.4539776 -0.7699988 -0.63499385
000110 ad fb 44 bf 44 0d c6 3d 26 1d 0b bf c2 ba 31 be
       -0.76946527 0.09670499 -0.5434135 -0.17356399
000120 bd 61 fd be 08 e7 70 be 29 9c 20 bf 80 75 55 bb
       -0.4948863 -0.23525631 -0.6273828 -0.0032571256
000130 d8 0c 77 bd 14 8a 36 be 9d 0a 1a bf 44 be 27 bf
       -0.060314983 -0.1782611 -0.60172445 -0.655247
000140 48 13 09 3d e0 2c 52 bc 04 23 66 be ac eb 08 bf
       0.033465654 -0.012828082 -0.22474295 -0.53484607
000150 00 f3 e8 3c 40 32 17 3d 00 fc 00 3d a0 1f b0 bd
       0.028436184 0.036913157 0.031490326 -0.08599782
000160 a0 1b 84 bd f2 96 29 be b0 ad 0e bd c6 4a 31 be
       -0.064505816 -0.16561487 -0.03483361 -0.1731368
000170 1c c4 0c 3e f5 5e 9d be af 2b 06 bf 4c 13 91 bd
       0.13746685 -0.3073651 -0.52410406 -0.07083759
000180 94 27 19 bf 70 59 de bd 4b 7c 05 bf 28 e4 3f be
       -0.59826016 -0.108569026 -0.5214278 -0.18739378
000190 6e f7 13 be 18 85 72 bd de 2d 57 be d2 04 0c 3e
       -0.14449856 -0.05920896 -0.2101359 0.13673714
0001a0 c0 69 10 bf 90 1d 20 bf 80 a6 2c be 40 cc 0a bd
       -0.5641136 -0.6254511 -0.1686039 -0.033886194
0001b0 a8 4e 63 bd 60 20 29 be 7e 55 1b bf d4 d0 38 3f
       -0.055494934 -0.16516256 -0.60677326 0.72193646
0001c0 f9 62 57 3e 68 77 f0 bd 2f c0 da be da 12 dc be
       0.21033849 -0.11741525 -0.4272475 -0.42983133
0001d0 83 80 cd be 7a cf 3a 3e 1a 36 13 bf 18 17 5b be
       -0.4013711 0.18243209 -0.5750443 -0.21395528
0001e0 82 bd af be 3c 20 12 be 6d 6c b9 be c0 a6 e4 3d
       -0.3432427 -0.14270109 -0.36215535 0.111646175
0001f0 f4 78 b4 bd 22 5a 70 be 44 e0 06 bf 10 9c c3 bd
       -0.088121325 -0.23471883 -0.5268595 -0.09551251
000200 10 13 a3 be 09 37 ff be 2c fe 40 be 64 8a f9 bd
       -0.3185048 -0.49846676 -0.18846959 -0.12184599
000210 03 42 c6 be 98 aa d8 bd 4c 14 0e bf 7c 14 15 3e
       -0.38722238 -0.10579413 -0.5549972 0.14558595
000220 7b cd b2 be dc cf 36 be 52 51 e9 be c8 9b b9 3d
       -0.34922394 -0.1785273 -0.45569855 0.09062916
000230 e4 54 fd bd 6e e2 26 be 2f 4c 82 be 00 dd 80 3f
       -0.12369707 -0.16297314 -0.25448748 1.0067444
000240 14 52 86 3d 90 00 c9 bd d4 b6 e2 3d 80 10 f7 bd
       0.06558624 -0.098145604 0.11070028 -0.12063694
000250 98 f2 c6 be 56 73 73 3e fc 66 18 be 88 44 5b 3e
       -0.3885696 0.23774466 -0.14883035 0.21412861
000260 5a fb 67 be 28 31 02 3e 78 5c 84 bd 32 62 7b be
       -0.22654477 0.12714064 -0.064629495 -0.24549177
000270 c0 9e e1 3d b4 18 52 bd 28 98 81 3d ca 53 06 3f
       0.11016607 -0.05129309 0.063278496 0.524716
000280 74 c9 65 be c0 e0 23 3c 5c 40 97 bd c0 c6 02 be
       -0.2244013 0.010002315 -0.073853225 -0.1277113
000290 45 25 d2 bb de d4 21 be 42 11 5d be ae a7 58 3e
       -0.0064131343 -0.15803859 -0.21588615 0.21157715
0002a0 40 79 1b 3c 20 0d 06 3c 3a 25 38 be 08 f0 ba 3d
       0.0094893575 0.00818184 -0.17982951 0.091278136
0002b0 b2 d4 65 3e 50 e0 d5 bc 72 42 17 be a7 66 f2 be
       0.22444418 -0.026107937 -0.1477144 -0.47343943
0002c0 de fd 0d be 78 23 c2 bd f5 4f 01 bf f4 08 6c be
       -0.13866374 -0.094794214 -0.5051263 -0.2305029
0002d0 78 6f 4e be f0 47 93 bd 80 b4 37 be 34 92 5a be
       -0.2015971 -0.07191455 -0.17939949 -0.21344835
0002e0 46 97 25 bf fc 3f b8 3d 9b d7 a6 bc 48 f6 ec 3d
       -0.6468395 0.08996579 -0.02036648 0.11570412
0002f0 7a 55 59 3e b5 0e c4 bd a0 d6 d2 bd d7 ab 29 bf
       0.21224013 -0.09573118 -0.10294843 -0.6627783
000300 86 8d 93 be 80 90 55 bd 94 fc 21 be ce 59 05 be
       -0.2881891 -0.05213976 -0.15819007 -0.13022539
000310 a1 84 06 bf 38 3b 57 bd 68 c9 d2 bd 18 bb 72 3e
       -0.52546126 -0.05254671 -0.102923214 0.23704183
000320 75 af e8 be 3c 87 e7 be c0 b8 c2 bc b0 15 b2 3c
       -0.45446363 -0.45220363 -0.023769736 0.021738857
000330 3e c8 61 3e ac f5 ad be 5e db 34 be bc b8 12 be
       0.22049043 -0.33976495 -0.17661807 -0.14328283
000340 b0 06 7a bd 1e 37 5e be 36 59 2b be 70 c4 74 bd
       -0.061041534 -0.21700713 -0.1673325 -0.05975765
000350 a8 ac 65 be 98 a0 f4 bd 10 84 46 3d 50 97 9d bc
       -0.22429144 -0.11944693 0.04846579 -0.01923719
000360 c8 17 6a bd 0b 78 c5 be 29 fb bf be d8 15 41 3e
       -0.057151586 -0.38568148 -0.37496307 0.18855989
000370 30 22 13 3e 50 84 1b 3d f8 d3 e2 bd c0 c7 ec bc
       0.1436851 0.03796798 -0.11075586 -0.028903842
000380 2c 36 ef be b0 0c 5f be 80 b2 fd be 4f b8 16 bf
       -0.46721017 -0.21782184 -0.49550247 -0.5887498
000390 8a 92 1a be 18 91 33 3e fe d6 a3 be 48 4b 10 3d
       -0.15094963 0.17535818 -0.31999964 0.035228044
0003a0 d2 47 d6 be 89 2b 34 bf cc 99 04 be 10 24 73 bd
       -0.4185167 -0.7037893 -0.12949294 -0.059360564
0003b0 64 d2 52 be 3c 74 eb bd 49 ec f5 bd 20 99 05 bf
       -0.2058807 -0.11496779 -0.120079584 -0.52186775
0003c0 38 d2 5f be 5b 81 0f bf eb 0c 1a bf db 0e 35 bf
       -0.21857536 -0.56056756 -0.6017596 -0.7072579
0003d0 37 80 cc be e8 28 0b 3e e1 cc 35 bf c0 19 9c 3b
       -0.3994157 0.13589823 -0.71015745 0.004763812
0003e0 29 94 bb be 82 2b 04 bf 7c 91 33 bf 4c 55 a8 3d
       -0.36636475 -0.5162889 -0.70143867 0.08219394
0003f0 64 90 1c be 76 d4 d9 be ea d2 65 be 48 1a 3e be
       -0.15289456 -0.42544907 -0.22443739 -0.18564713

bias f4 [64]
000000 b6 74 3a bf 6b d5 e2 be b4 42 30 bf 00 b6 20 bf
       -0.72834337 -0.4430345 -0.6885178 -0.6277771
000010 e7 65 05 bf 22 9a 37 bf b2 a4 5e be dd 96 31 bf
       -0.52108616 -0.71719563 -0.21742514 -0.69370824
000020 2a ca 02 bf 3a e8 de be b1 f2 4d bf 52 7a ea be
       -0.5108973 -0.4353655 -0.8044844 -0.45796448
000030 6e 62 15 bf 9b 42 28 bf be cc 16 bf e4 c3 0a bf
       -0.58353317 -0.6572663 -0.5890616 -0.54205155
000040 2d 76 47 bf b0 c8 69 be 07 a1 1b bf 4f 5c 09 bf
       -0.77914697 -0.22830462 -0.60792583 -0.53656477
000050 af 8d 65 bf 42 50 4a be dc ea 54 bf b0 49 65 bf
       -0.89669317 -0.19757178 -0.83170867 -0.89565563
000060 e1 1d 2a bf 6f d7 3f bf ff 68 28 bf 96 ad 98 be
       -0.6645184 -0.749381 -0.6578521 -0.29819936
000070 69 88 17 bf 35 d4 42 bf ec bc 3d bf b7 df 35 bf
       -0.5919252 -0.7610505 -0.74116397 -0.71044487
000080 13 62 0f bf c8 45 1c bf 05 06 4a bf f0 f3 39 bf
       -0.56009024 -0.6104398 -0.78915435 -0.72637844
000090 30 b7 02 bf f0 a9 4f bf 80 b0 03 bf 3d 4d 4c bf
       -0.5106077 -0.8111868 -0.5144119 -0.79805356
0000a0 a1 6e 5c bf b2 4a e1 be b9 81 61 bf 4a 5e 32 bf
       -0.86106306 -0.440023 -0.88088566 -0.69675124
0000b0 36 f6 4c bf 92 f5 cd be da e3 1e bf f2 ff f0 be
       -0.8006319 -0.40226418 -0.62066424 -0.4707027
0000c0 ac 51 80 bf 98 09 07 bf 00 c6 28 bf 65 4f 55 bf
       -1.0024924 -0.52749014 -0.65927124 -0.8332427
0000d0 54 ac 6c bf 72 7b fa be bb e9 d2 be be e3 6e be
       -0.9245045 -0.48922306 -0.41193947 -0.23329064
0000e0 01 65 4c bf ce 55 40 be 70 a6 53 bf ee df 3d bf
       -0.7984162 -0.18782732 -0.8267584 -0.74169815
0000f0 79 31 48 bf b9 fb 09 bf 0f 9e 16 bf cd 7e 3f bf
       -0.7820049 -0.53899723 -0.5883493 -0.7480286

weight f4 [4, 64]
000000 ef 5c 04 3f 71 cb 98 3e 64 65 27 be f9 7b eb 3e
       0.51704305 0.29842713 -0.16347271 0.4599302
000010 46 c5 fa 3e 17 b3 26 3f 3d 9d 51 bd 2b 94 2c 3f
       0.48978633 0.6511702 -0.051175345 0.67413586
000020 8d b9 c8 3e 0a 84 53 3f c4 0d 05 3f cd b6 71 3f
       0.39204064 0.8262335 0.5197413 0.94419557
000030 43 bd d2 3e 33 1d 26 3f 29 a5 1a 3f 82 c7 26 3f
       0.4116002 0.64888304 0.60408264 0.65148175
000040 b1 fd bd 3e d0 6a 9f bd 7e 80 52 3f 10 b8 1d 3f
       0.37107614 -0.07784045 0.82227314 0.6160898
000050 36 14 37 3f f8 5c ae 3e 6b c9 25 3f a9 e5 64 3f
       0.71515214 0.34055305 0.64760464 0.89412934
000060 12 15 e1 3e 92 78 fc 3e 87 07 1b bf 34 14 07 3f
       0.43961388 0.49310738 -0.6055836 0.527652
000070 93 41 05 3f cf cf 22 3f 89 51 c3 3e 8f d1 00 bf
       0.52053183 0.6359834 0.38148144 -0.5031976
000080 8a 11 17 3f f4 4b 9d 3e ca 12 e3 bd f6 0e 03 3f
       0.5901114 0.3072201 -0.11087568 0.51194704
000090 c8 b0 c9 3e 8f f1 f5 be d4 69 ea 3e d1 25 1c 3f
       0.39392686 -0.48035857 0.45783865 0.60995203
0000a0 f1 aa 1e bf fd b0 06 3f fc 26 57 3f 14 75 28 3f
       -0.61979586 0.5261381 0.8404386 0.6580365
0000b0 85 ac 0b 3e 40 c9 2e 3f 96 03 01 3f 9e 13 54 3e
       0.1364003 0.68275833 0.50396097 0.20710608
0000c0 ca ca d8 be b3 78 fe 3e 28 72 c9 3e 6d 10 45 3f
       -0.42342216 0.4970146 0.39344907 0.7697819
0000d0 a8 2b e3 3e 05 39 07 3f 5b 14 d4 3e b6 cd 8b 3d
       0.44369245 0.5282138 0.4142178 0.068263456
0000e0 47 eb 43 3f 00 08 23 39 59 c8 1b 3f 0b 4d 18 3f
       0.7653088 0.00015547872 0.6085258 0.5949256
0000f0 4b 1d 05 3f 15 f2 08 3f 36 bd 97 3e 98 72 44 3f
       0.5199782 0.5349439 0.29636544 0.76737356
000100 1a e9 af be ff dd ea be 51 b8 a2 3d 4a 7a b5 be
       -0.3435753 -0.45872495 0.07945312 -0.35444862
000110 37 d4 98 be 20 77 84 be f3 e2 aa be 84 80 af be
       -0.29849407 -0.25872135 -0.33376274 -0.34277737
000120 56 86 b7 be 11 9f f6 be ba 99 91 3d 04 86 e1 bd
       -0.35844678 -0.48168233 0.07109399 -0.110118896
000130 4e 95 df be 5f ad 12 3f 77 98 8a be 05 d8 cf be
       -0.43668598 0.57295793 -0.27069446 -0.40594497
000140 69 80 a7 be d4 d6 81 bd 75 1b 5e bd a0 5b a1 be
       -0.32715157 -0.06339803 -0.054225404 -0.31515217
000150 a4 29 17 3f 00 8f 81 be af cd c9 be 97 00 08 3f
       0.59047914 -0.25304413 -0.39414737 0.531259
000160 8b f7 dc be e0 68 c0 be c4 c1 fe 3e 06 e4 8c be
       -0.4315761 -0.37580013 0.49757206 -0.27517718
000170 a4 d4 c2 be 00 2a 9c 3d af 5e e3 be 87 18 10 3f
       -0.38052857 0.07625198 -0.44408175 0.56287426
000180 1e f6 a8 be 38 4f a2 bd 2f 01 f4 3e b9 1f 80 be
       -0.33000273 -0.07925266 0.47657153 -0.25024202
000190 ac 70 c7 be 82 03 fb 3e fc 06 bd be 40 aa 0d 3f
       -0.3895315 0.49026114 -0.3691939 0.55337906
0001a0 16 c6 61 be 1f 59 ba be f1 97 cd be a0 aa af 3d
       -0.2204822 -0.3639612 -0.40154985 0.08577466
0001b0 4d be d3 be 9f 10 e7 be 6c 9c c2 be 6d 04 0c 3f
       -0.41356125 -0.45129868 -0.38009965 0.54694253
0001c0 a3 32 07 3f ad a7 d3 be ed 26 ba be b7 1c d9 bd
       0.5281164 -0.41338864 -0.36357823 -0.1060118
0001d0 60 4c e5 be f2 56 a8 be 8b 0c b2 be f0 c0 fa bd
       -0.44784832 -0.32878834 -0.34775195 -0.12243831
0001e0 73 5d b6 be b4 d5 ff bd 89 cd ce be 2e ac be be
       -0.3561817 -0.124919325 -0.40391186 -0.37240738
0001f0 30 3f 02 3f d9 48 c0 be 93 f0 b2 be 6b 2f b8 be
       0.50877666 -0.37555578 -0.3494917 -0.35973677
000200 6b 63 05 3f d8 42 40 3f 16 b0 05 3f 0e cf f1 be
       0.52104825 0.75101995 0.5222181 -0.47228283
000210 54 b7 b5 bd 5d bd 03 3f 13 20 1d 3f 51 20 1b bf
       -0.08872858 0.5146082 0.61377066 -0.60596186
000220 32 bb 6f 3e 3f 41 06 3e 07 93 ff 3e 04 87 28 3d
       0.23411253 0.13110827 0.4991686 0.041144386
000230 60 e5 00 bf 80 6a 09 3f ab 4d e2 3d f7 d7 ba be
       -0.5035 0.5367813 0.1104997 -0.36492893
000240 5d ee bc 3e 2c 59 f9 3d 1a 0a 64 3b 6d ed ea be
       0.36900607 0.12175211 0.003479606 -0.45884266
000250 b6 ec 00 bf 31 d0 14 be bd 0e 09 3f 19 30 eb be
       -0.5036119 -0.14532544 0.53538114 -0.45935133
000260 e1 0e af 3e 0b d9 bc 3e 35 17 0a 3f 96 da b8 be
       0.3419104 0.3688434 0.5394166 -0.36104268
000270 15 d8 f1 be 51 0f 13 3f ae 29 90 3e 2f b9 03 3f
       -0.4723517 0.57445246 0.281568 0.5145444
000280 fb 69 0f bd af b2 1a 3f 07 b2 15 3f 95 5b fd 3e
       -0.03501318 0.604289 0.58474773 0.49483934
000290 a0 b2 ef be 30 0f c8 3c 47 79 97 bd dc 8d 39 bd
       -0.46815968 0.024421304 -0.07396179 -0.045301303
0002a0 d6 b0 97 bd a1 87 07 bf ab bc c7 be 88 4a 06 3f
       -0.07406776 -0.5294133 -0.3901113 0.52457476
0002b0 58 fc 6d 3e 07 e0 22 3f 37 72 dd 3e ee e9 1b bf
       0.23240793 0.6362309 0.43251202 -0.60903823
0002c0 ae f4 94 be 0b 3b 03 bf 53 d8 f8 be ca d9 13 3f
       -0.29092926 -0.5126197 -0.48602542 0.57754195
0002d0 4e e4 fc 3e 91 3e 93 3e fe 4a 10 bf 04 1f c5 bd
       0.49392933 0.28758672 -0.5636443 -0.096250564
0002e0 92 22 e0 3e dc a3 d7 3d 5a 55 d2 3d 97 73 ee be
       0.43776375 0.105293006 0.10270186 -0.46572563
0002f0 92 45 0f 3f db 42 cb be 76 3e 71 be d1 27 bb 3e
       0.5596553 -0.39699444 -0.23558983 0.36553815
000300 4d 00 a5 be aa e0 e4 be 1f 5f dd 3e 0b 83 e7 be
       -0.32226792 -0.44702655 0.43236634 -0.45217165
000310 0e 98 c1 be 71 d7 17 bf f9 e8 5c bd df 48 bc be
       -0.3781132 -0.5931311 -0.053933118 -0.36774346
000320 23 fc fe be 4b cb 1d bf cb 98 b6 3e f5 26 3d bf
       -0.4980174 -0.61638325 0.35663447 -0.7388757
000330 38 f3 e7 be 31 a9 22 3f 32 39 9f be fc 69 23 bf
       -0.4530275 0.63539416 -0.31098324 -0.63833594
000340 6c 1a b6 be 20 16 d0 bd 01 0b a9 be 8f a8 e3 be
       -0.35567033 -0.1016047 -0.33016208 -0.44464538
000350 d1 ef 40 bf 5d f6 99 be 2f 91 66 be 45 ff 1b bf
       -0.7536593 -0.30070773 -0.2251632 -0.60936385
000360 07 2a b1 be ca b6 3b be 56 bb 0f 3f 15 ff e1 be
       -0.34602377 -0.18331447 0.56145227 -0.44139925
000370 4e ae a7 be 63 75 2b 3f b4 86 77 be c3 ca 11 3f
       -0.3275017 0.6697599 -0.24172479 0.56950015
000380 25 79 1a bf d2 e4 49 be a0 c8 59 bd a4 e0 45 bd
       -0.603411 -0.19716194 -0.053169847 -0.048309937
000390 a0 9e b9 be 80 f2 cf 3b c0 e9 db be a3 7d 29 3f
       -0.36253834 0.006346047 -0.42951775 0.6620733
0003a0 ee 51 e1 3e 87 6d cd be 3f 0d e1 be 63 d6 4b be
       0.4400782 -0.40122625 -0.43955418 -0.19906001
0003b0 86 22 18 bd c8 44 b7 be 25 fe ce be b2 16 a4 3e
       -0.0371423 -0.35794663 -0.40428272 0.32048565
0003c0 59 27 ab bd 9a 60 c5 be b8 81 03 bf 92 a0 4f 3e
       -0.08357114 -0.38550264 -0.5136981 0.20276096
0003d0 f4 9b 70 be f6 a9 bf be b8 78 c7 be ae 50 de 3d
       -0.23496991 -0.37434357 -0.3895929 0.10855232
0003e0 72 80 40 bf e0 e9 2b 3d 4f b6 e0 be e1 ff df be
       -0.7519599 0.041971087 -0.4388909 -0.43749908
0003f0 8a 5c 1d 3f 81 df e0 be 70 f2 ca 3d b4 4b c9 be
       0.6146933 -0.4392052 0.099095225 -0.3931557

bias f4 [4]
000000 21 9c 03 3a 85 13 e7 39 18 d9 ac 39 fa 14 dc 39
       0.00050205184 0.00044074297 0.00032968144 0.000419773

weight f4 [64, 16]
000000 88 fb b5 be f7 58 be be ec e1 a3 bd 2a 6b f2 be
       -0.35543466 -0.3717725 -0.080020756 -0.47347385
000010 12 8a 1a be 40 55 70 3c 6e 70 9d be e2 b0 59 be
       -0.15091732 0.014668763 -0.3074984 -0.21258882
000020 e6 9e 23 be c4 44 ef bd 14 da c8 bd a0 8f a4 bd
       -0.15978584 -0.11683038 -0.0980722 -0.08035207
000030 a8 e3 40 3d 94 b4 8d be 5c 2e 9f bd 6b c7 d1 be
       0.04709211 -0.27676833 -0.07772514 -0.40972456
000040 77 00 d9 be 27 cd f4 be 6e b2 d4 be e6 b9 e9 be
       -0.42383167 -0.4781277 -0.4154238 -0.45649642
000050 30 25 08 bd 10 e5 b8 3c f0 e1 ca bd 70 17 19 be
       -0.03323859 0.022570163 -0.099063754 -0.14950347
000060 30 0d c9 bc 30 37 3e be 2c 61 90 bd a4 61 c9 bd
       -0.024542421 -0.1857574 -0.07049784 -0.098330766
000070 80 c6 91 bd c6 5f 16 be a7 51 db be 10 98 6e 3f
       -0.07117939 -0.14684972 -0.42835733 0.9320078
000080 9e a3 13 bf 20 ff 06 be cc cb 4e be 0e 74 76 be
       -0.57671535 -0.1318326 -0.2019493 -0.24067709
000090 ff e4 3d be 6e cd 1a 3e 40 f9 0f bf 14 f6 8b bd
       -0.18544386 0.15117428 -0.562397 -0.06834045
0000a0 84 2a 04 bf f0 35 ef be 3c 0d 7b be 5c 6d 14 be
       -0.51627374 -0.4672084 -0.24516767 -0.14494842
0000b0 40 9e 4a bd be 6a 00 bf f0 fb 22 bf c2 61 44 be
       -0.049467325 -0.50162876 -0.63665676 -0.19177917
0000c0 df 70 ee be 90 bd 45 3d 0a a1 6b be e2 9b 09 be
       -0.4657049 0.048276484 -0.2301065 -0.13438371
0000d0 da b5 fa be 2a 4f 4e be aa e0 e3 be 10 e7 25 3d
       -0.48966867 -0.20147386 -0.44507343 0.04050356
0000e0 ca 2e 84 be 9a ae 18 be 9c 2c 86 be 50 48 a5 bd
       -0.25816947 -0.14910355 -0.2620591 -0.08070433
0000f0 10 60 de 3c d0 48 f5 bd 54 df 9c bd 60 ac 2f bc
       0.027145416 -0.119767785 -0.07659784 -0.01072225
000100 6c f9 0c bf c1 6f e8 be a4 1e 45 bf f5 8e 22 bf
       -0.5506809 -0.4539776 -0.7699988 -0.63499385
000110 ad fb 44 bf 44 0d c6 3d 26 1d 0b bf c2 ba 31 be
       -0.76946527 0.09670499 -0.5434135 -0.17356399
000120 bd 61 fd be 08 e7 70 be 29 9c 20 bf 80 75 55 bb
       -0.4948863 -0.23525631 -0.6273828 -0.0032571256
000130 d8 0c 77 bd 14 8a 36 be 9d 0a 1a bf 44 be 27 bf
       -0.060314983 -0.1782611 -0.60172445 -0.655247
000140 48 13 09 3d e0 2c 52 bc 04 23 66 be ac eb 08 bf
       0.033465654 -0.012828082 -0.22474295 -0.53484607
000150 00 f3 e8 3c 40 32 17 3d 00 fc 00 3d a0 1f b0 bd
       0.028436184 0.036913157 0.031490326 -0.08599782
000160 a0 1b 84 bd f2 96 29 be b0 ad 0e bd c6 4a 31 be
       -0.064505816 -0.16561487 -0.03483361 -0.1731368
000170 1c c4 0c 3e f5 5e 9d be af 2b 06 bf 4c 13 91 bd
       0.13746685 -0.3073651 -0.52410406 -0.07083759
000180 94 27 19 bf 70 59 de bd 4b 7c 05 bf 28 e4 3f be
       -0.59826016 -0.108569026 -0.5214278 -0.18739378
000190 6e f7 13 be 18 85 72 bd de 2d 57 be d2 04 0c 3e
       -0.14449856 -0.05920896 -0.2101359 0.13673714
0001a0 c0 69 10 bf 90 1d 20 bf 80 a6 2c be 40 cc 0a bd
       -0.5641136 -0.6254511 -0.1686039 -0.033886194
0001b0 a8 4e 63 bd 60 20 29 be 7e 55 1b bf b6 82 38 3f
       -0.055494934 -0.16516256 -0.60677326 0.7207445
0001c0 f9 62 57 3e 68 77 f0 bd 2f c0 da be da 12 dc be
       0.21033849 -0.11741525 -0.4272475 -0.42983133
0001d0 83 80 cd be 7a cf 3a 3e 1a 36 13 bf 18 17 5b be
       -0.4013711 0.18243209 -0.5750443 -0.21395528
0001e0 82 bd af be 3c 20 12 be 6d 6c b9 be c0 a6 e4 3d
       -0.3432427 -0.14270109 -0.36215535 0.111646175
0001f0 f4 78 b4 bd 22 5a 70 be 44 e0 06 bf 10 9c c3 bd
       -0.088121325 -0.23471883 -0.5268595 -0.09551251
000200 10 13 a3 be 09 37 ff be 2c fe 40 be 64 8a f9 bd
       -0.3185048 -0.49846676 -0.18846959 -0.12184599
000210 03 42 c6 be 98 aa d8 bd 4c 14 0e bf 7c 14 15 3e
       -0.38722238 -0.10579413 -0.5549972 0.14558595
000220 7b cd b2 be dc cf 36 be 52 51 e9 be c8 9b b9 3d
       -0.34922394 -0.1785273 -0.45569855 0.09062916
000230 e4 54 fd bd 6e e2 26 be 2f 4c 82 be 90 c7 80 3f
       -0.12369707 -0.16297314 -0.25448748 1.0060902
000240 14 52 86 3d 90 00 c9 bd d4 b6 e2 3d 80 10 f7 bd
       0.06558624 -0.098145604 0.11070028 -0.12063694
000250 98 f2 c6 be 56 73 73 3e fc 66 18 be 88 44 5b 3e
       -0.3885696 0.23774466 -0.14883035 0.21412861
000260 5a fb 67 be 28 31 02 3e 78 5c 84 bd 32 62 7b be
       -0.22654477 0.12714064 -0.064629495 -0.24549177
000270 c0 9e e1 3d b0 18 52 bd 28 98 81 3d 0c 4b 06 3f
       0.11016607 -0.051293075 0.063278496 0.5245826
000280 74 c9 65 be c0 e0 23 3c 5c 40 97 bd c0 c6 02 be
       -0.2244013 0.010002315 -0.073853225 -0.1277113
000290 1b 25 d2 bb de d4 21 be 42 11 5d be ae a7 58 3e
       -0.0064131147 -0.15803859 -0.21588615 0.21157715
0002a0 40 79 1b 3c 20 0d 06 3c 3a 25 38 be 08 f0 ba 3d
       0.0094893575 0.00818184 -0.17982951 0.091278136
0002b0 b2 d4 65 3e 50 e0 d5 bc 72 42 17 be a7 66 f2 be
       0.22444418 -0.026107937 -0.1477144 -0.47343943
0002c0 de fd 0d be 78 23 c2 bd f5 4f 01 bf f4 08 6c be
       -0.13866374 -0.094794214 -0.5051263 -0.2305029
0002d0 78 6f 4e be f0 47 93 bd 80 b4 37 be 34 92 5a be
       -0.2015971 -0.07191455 -0.17939949 -0.21344835
0002e0 46 97 25 bf fc 3f b8 3d 99 d7 a6 bc 48 f6 ec 3d
       -0.6468395 0.08996579 -0.020366477 0.11570412
0002f0 7a 55 59 3e b5 0e c4 bd a0 d6 d2 bd d7 ab 29 bf
       0.21224013 -0.09573118 -0.10294843 -0.6627783
000300 86 8d 93 be 80 90 55 bd 94 fc 21 be ce 59 05 be
       -0.2881891 -0.05213976 -0.15819007 -0.13022539
000310 a1 84 06 bf 38 3b 57 bd 68 c9 d2 bd 18 bb 72 3e
       -0.52546126 -0.05254671 -0.102923214 0.23704183
000320 75 af e8 be 3c 87 e7 be c0 b8 c2 bc b0 15 b2 3c
       -0.45446363 -0.45220363 -0.023769736 0.021738857
000330 3e c8 61 3e ac f5 ad be 5e db 34 be bc b8 12 be
       0.22049043 -0.33976495 -0.17661807 -0.14328283
000340 b0 06 7a bd 1e 37 5e be 36 59 2b be 70 c4 74 bd
       -0.061041534 -0.21700713 -0.1673325 -0.05975765
000350 a8 ac 65 be 98 a0 f4 bd 10 84 46 3d 50 97 9d bc
       -0.22429144 -0.11944693 0.04846579 -0.01923719
000360 c8 17 6a bd 0b 78 c5 be 29 fb bf be d8 15 41 3e
       -0.057151586 -0.38568148 -0.37496307 0.18855989
000370 30 22 13 3e 50 84 1b 3d f8 d3 e2 bd c0 c7 ec bc
       0.1436851 0.03796798 -0.11075586 -0.028903842
000380 2c 36 ef be b0 0c 5f be 80 b2 fd be 4f b8 16 bf
       -0.46721017 -0.21782184 -0.49550247 -0.5887498
000390 8a 92 1a be 18 91 33 3e fe d6 a3 be 48 4b 10 3d
       -0.15094963 0.17535818 -0.31999964 0.035228044
0003a0 d2 47 d6 be 89 2b 34 bf cc 99 04 be 10 24 73 bd
       -0.4185167 -0.7037893 -0.12949294 -0.059360564
0003b0 64 d2 52 be 3c 74 eb bd 49 ec f5 bd 20 99 05 bf
       -0.2058807 -0.11496779 -0.120079584 -0.52186775
0003c0 38 d2 5f be 5b 81 0f bf eb 0c 1a bf db 0e 35 bf
       -0.21857536 -0.56056756 -0.6017596 -0.7072579
0003d0 37 80 cc be e8 28 0b 3e e1 cc 35 bf c0 19 9c 3b
       -0.3994157 0.13589823 -0.71015745 0.004763812
0003e0 29 94 bb be 82 2b 04 bf 7c 91 33 bf 4c 55 a8 3d
       -0.36636475 -0.5162889 -0.70143867 0.08219394
0003f0 64 90 1c be 76 d4 d9 be ea d2 65 be 48 1a 3e be
       -0.15289456 -0.42544907 -0.22443739 -0.18564713

bias f4 [64]
000000 b6 74 3a bf 10 1d e3 be b4 42 30 bf 00 b6 20 bf
       -0.72834337 -0.4435811 -0.6885178 -0.6277771
000010 e7 65 05 bf 22 9a 37 bf 6a de 5f be dd 96 31 bf
       -0.52108616 -0.71719563 -0.21862188 -0.69370824
000020 2c cf 02 bf 8c f8 de be b1 f2 4d bf 52 7a ea be
       -0.5109737 -0.43549 -0.8044844 -0.45796448
000030 6e 62 15 bf 9b 42 28 bf be cc 16 bf e4 c3 0a bf
       -0.58353317 -0.6572663 -0.5890616 -0.54205155
000040 2d 76 47 bf b0 c8 69 be 07 a1 1b bf 4f 5c 09 bf
       -0.77914697 -0.22830462 -0.60792583 -0.53656477
000050 af 8d 65 bf 3b 3d 4a be dc ea 54 bf b0 49 65 bf
       -0.89669317 -0.1974992 -0.83170867 -0.89565563
000060 e1 1d 2a bf 6f d7 3f bf ff 68 28 bf 82 8d 98 be
       -0.6645184 -0.749381 -0.6578521 -0.29795462
000070 69 88 17 bf 35 d4 42 bf ec bc 3d bf b7 df 35 bf
       -0.5919252 -0.7610505 -0.74116397 -0.71044487
000080 d3 59 0f bf 84 76 1c bf 05 06 4a bf f0 f3 39 bf
       -0.55996436 -0.6111834 -0.78915435 -0.72637844
000090 30 b7 02 bf f0 a9 4f bf d9 a8 03 bf 3d 4d 4c bf
       -0.5106077 -0.8111868 -0.51429516 -0.79805356
0000a0 a1 6e 5c bf b2 4a e1 be b9 81 61 bf 4a 5e 32 bf
       -0.86106306 -0.440023 -0.88088566 -0.69675124
0000b0 36 f6 4c bf ee 6b ce be da e3 1e bf ee ff f0 be
       -0.8006319 -0.4031672 -0.62066424 -0.4707026
0000c0 ac 51 80 bf 98 09 07 bf 00 c6 28 bf 65 4f 55 bf
       -1.0024924 -0.52749014 -0.65927124 -0.8332427
0000d0 54 ac 6c bf 72 7b fa be bb e9 d2 be be e3 6e be
       -0.9245045 -0.48922306 -0.41193947 -0.23329064
0000e0 01 65 4c bf ce 55 40 be 70 a6 53 bf ee df 3d bf
       -0.7984162 -0.18782732 -0.8267584 -0.74169815
0000f0 79 31 48 bf b9 fb 09 bf 0f 9e 16 bf cd 7e 3f bf
       -0.7820049 -0.53899723 -0.5883493 -0.7480286

weight f4 [4, 64]
000000 ef 5c 04 3f 71 cb 98 3e 64 65 27 be f9 7b eb 3e
       0.51704305 0.29842713 -0.16347271 0.4599302
000010 46 c5 fa 3e 17 b3 26 3f 3d 9d 51 bd 2b 94 2c 3f
       0.48978633 0.6511702 -0.051175345 0.67413586
000020 8d b9 c8 3e 0a 84 53 3f c4 0d 05 3f cd b6 71 3f
       0.39204064 0.8262335 0.5197413 0.94419557
000030 43 bd d2 3e 33 1d 26 3f 29 a5 1a 3f 82 c7 26 3f
       0.4116002 0.64888304 0.60408264 0.65148175
000040 b1 fd bd 3e d0 6a 9f bd 7e 80 52 3f 10 b8 1d 3f
       0.37107614 -0.07784045 0.82227314 0.6160898
000050 36 14 37 3f f8 5c ae 3e 6b c9 25 3f a9 e5 64 3f
       0.71515214 0.34055305 0.64760464 0.89412934
000060 12 15 e1 3e 92 78 fc 3e 87 07 1b bf 34 14 07 3f
       0.43961388 0.49310738 -0.6055836 0.527652
000070 93 41 05 3f cf cf 22 3f 89 51 c3 3e 8f d1 00 bf
       0.52053183 0.6359834 0.38148144 -0.5031976
000080 8a 11 17 3f f4 4b 9d 3e ca 12 e3 bd f6 0e 03 3f
       0.5901114 0.3072201 -0.11087568 0.51194704
000090 c8 b0 c9 3e 8f f1 f5 be d4 69 ea 3e d1 25 1c 3f
       0.39392686 -0.48035857 0.45783865 0.60995203
0000a0 f1 aa 1e bf fd b0 06 3f fc 26 57 3f 14 75 28 3f
       -0.61979586 0.5261381 0.8404386 0.6580365
0000b0 85 ac 0b 3e 40 c9 2e 3f 96 03 01 3f 9e 13 54 3e
       0.1364003 0.68275833 0.50396097 0.20710608
0000c0 ca ca d8 be b3 78 fe 3e 28 72 c9 3e 6d 10 45 3f
       -0.42342216 0.4970146 0.39344907 0.7697819
0000d0 a8 2b e3 3e 05 39 07 3f 5b 14 d4 3e b6 cd 8b 3d
       0.44369245 0.5282138 0.4142178 0.068263456
0000e0 47 eb 43 3f 00 08 23 39 59 c8 1b 3f 0b 4d 18 3f
       0.7653088 0.00015547872 0.6085258 0.5949256
0000f0 4b 1d 05 3f 15 f2 08 3f 36 bd 97 3e 98 72 44 3f
       0.5199782 0.5349439 0.29636544 0.76737356
000100 1a e9 af be ff dd ea be 51 b8 a2 3d 4a 7a b5 be
       -0.3435753 -0.45872495 0.07945312 -0.35444862
000110 37 d4 98 be 20 77 84 be f3 e2 aa be 84 80 af be
       -0.29849407 -0.25872135 -0.33376274 -0.34277737
000120 56 86 b7 be 11 9f f6 be b7 99 91 3d 04 86 e1 bd
       -0.35844678 -0.48168233 0.07109397 -0.110118896
000130 4e 95 df be 5f ad 12 3f 77 98 8a be 05 d8 cf be
       -0.43668598 0.57295793 -0.27069446 -0.40594497
000140 69 80 a7 be d4 d6 81 bd 75 1b 5e bd a0 5b a1 be
       -0.32715157 -0.06339803 -0.054225404 -0.31515217
000150 a4 29 17 3f 00 8f 81 be af cd c9 be 97 00 08 3f
       0.59047914 -0.25304413 -0.39414737 0.531259
000160 8b f7 dc be e0 68 c0 be c4 c1 fe 3e 06 e4 8c be
       -0.4315761 -0.37580013 0.49757206 -0.27517718
000170 a4 d4 c2 be 00 2a 9c 3d af 5e e3 be 87 18 10 3f
       -0.38052857 0.07625198 -0.44408175 0.56287426
000180 1e f6 a8 be 38 4f a2 bd 2f 01 f4 3e b9 1f 80 be
       -0.33000273 -0.07925266 0.47657153 -0.25024202
000190 ac 70 c7 be 82 03 fb 3e fc 06 bd be 40 aa 0d 3f
       -0.3895315 0.49026114 -0.3691939 0.55337906
0001a0 16 c6 61 be 1f 59 ba be f1 97 cd be a0 aa af 3d
       -0.2204822 -0.3639612 -0.40154985 0.08577466
0001b0 4d be d3 be 9f 10 e7 be 6c 9c c2 be 6d 04 0c 3f
       -0.41356125 -0.45129868 -0.38009965 0.54694253
0001c0 a3 32 07 3f ad a7 d3 be ed 26 ba be b7 1c d9 bd
       0.5281164 -0.41338864 -0.36357823 -0.1060118
0001d0 60 4c e5 be f2 56 a8 be 8b 0c b2 be f0 c0 fa bd
       -0.44784832 -0.32878834 -0.34775195 -0.12243831
0001e0 73 5d b6 be b4 d5 ff bd 89 cd ce be 2e ac be be
       -0.3561817 -0.124919325 -0.40391186 -0.37240738
0001f0 30 3f 02 3f d9 48 c0 be 93 f0 b2 be 6b 2f b8 be
       0.50877666 -0.37555578 -0.3494917 -0.35973677
000200 6b 63 05 3f 0e 26 40 3f 16 b0 05 3f 0e cf f1 be
       0.52104825 0.75058067 0.5222181 -0.47228283
000210 54 b7 b5 bd 5d bd 03 3f 38 1b 1d 3f 51 20 1b bf
       -0.08872858 0.5146082 0.6136966 -0.60596186
000220 da 52 6f 3e c2 de 06 3e 07 93 ff 3e 04 87 28 3d
       0.23371449 0.13170913 0.4991686 0.041144386
000230 60 e5 00 bf 80 6a 09 3f ab 4d e2 3d f7 d7 ba be
       -0.5035 0.5367813 0.1104997 -0.36492893
000240 5d ee bc 3e 2c 59 f9 3d 20 0a 64 3b 6d ed ea be
       0.36900607 0.12175211 0.0034796074 -0.45884266
000250 b6 ec 00 bf bf 3d 15 be bd 0e 09 3f 19 30 eb be
       -0.5036119 -0.14574336 0.53538114 -0.45935133
000260 e1 0e af 3e 0b d9 bc 3e 35 17 0a 3f 54 2e b9 be
       0.3419104 0.3688434 0.5394166 -0.36168158
000270 15 d8 f1 be 51 0f 13 3f ae 29 90 3e 2f b9 03 3f
       -0.4723517 0.57445246 0.281568 0.5145444
000280 1b 63 11 bd ca c1 1a 3f 07 b2 15 3f 95 5b fd 3e
       -0.035494905 0.6045195 0.58474773 0.49483934
000290 a0 b2 ef be 30 0f c8 3c 87 28 98 bd dc 8d 39 bd
       -0.46815968 0.024421304 -0.07429605 -0.045301303
0002a0 d6 b0 97 bd a1 87 07 bf ab bc c7 be 88 4a 06 3f
       -0.07406776 -0.5294133 -0.3901113 0.52457476
0002b0 58 fc 6d 3e 81 d2 22 3f 37 72 dd 3e ee e9 1b bf
       0.23240793 0.63602453 0.43251202 -0.60903823
0002c0 ae f4 94 be 0b 3b 03 bf 53 d8 f8 be ca d9 13 3f
       -0.29092926 -0.5126197 -0.48602542 0.57754195
0002d0 4e e4 fc 3e 91 3e 93 3e fe 4a 10 bf 04 1f c5 bd
       0.49392933 0.28758672 -0.5636443 -0.096250564
0002e0 92 22 e0 3e dc a3 d7 3d 5a 55 d2 3d 97 73 ee be
       0.43776375 0.105293006 0.10270186 -0.46572563
0002f0 92 45 0f 3f db 42 cb be 76 3e 71 be d1 27 bb 3e
       0.5596553 -0.39699444 -0.23558983 0.36553815
000300 4d 00 a5 be aa e0 e4 be 1f 5f dd 3e 0b 83 e7 be
       -0.32226792 -0.44702655 0.43236634 -0.45217165
000310 0e 98 c1 be 71 d7 17 bf f9 e8 5c bd df 48 bc be
       -0.3781132 -0.5931311 -0.053933118 -0.36774346
000320 23 fc fe be 4b cb 1d bf cb 98 b6 3e f5 26 3d bf
       -0.4980174 -0.61638325 0.35663447 -0.7388757
000330 38 f3 e7 be 31 a9 22 3f 32 39 9f be fc 69 23 bf
       -0.4530275 0.63539416 -0.31098324 -0.63833594
000340 6c 1a b6 be 20 16 d0 bd 01 0b a9 be 8f a8 e3 be
       -0.35567033 -0.1016047 -0.33016208 -0.44464538
000350 d1 ef 40 bf 5d f6 99 be 2f 91 66 be 45 ff 1b bf
       -0.7536593 -0.30070773 -0.2251632 -0.60936385
000360 07 2a b1 be ca b6 3b be 56 bb 0f 3f 15 ff e1 be
       -0.34602377 -0.18331447 0.56145227 -0.44139925
000370 4e ae a7 be 63 75 2b 3f b4 86 77 be c3 ca 11 3f
       -0.3275017 0.6697599 -0.24172479 0.56950015
000380 25 79 1a bf d2 e4 49 be a0 c8 59 bd a4 e0 45 bd
       -0.603411 -0.19716194 -0.053169847 -0.048309937
000390 a0 9e b9 be 80 f2 cf 3b c0 e9 db be a3 7d 29 3f
       -0.36253834 0.006346047 -0.42951775 0.6620733
0003a0 ee 51 e1 3e 87 6d cd be 3f 0d e1 be 63 d6 4b be
       0.4400782 -0.40122625 -0.43955418 -0.19906001
0003b0 86 22 18 bd c8 44 b7 be 25 fe ce be b2 16 a4 3e
       -0.0371423 -0.35794663 -0.40428272 0.32048565
0003c0 59 27 ab bd 9a 60 c5 be b8 81 03 bf 92 a0 4f 3e
       -0.08357114 -0.38550264 -0.5136981 0.20276096
0003d0 f4 9b 70 be f6 a9 bf be b8 78 c7 be ae 50 de 3d
       -0.23496991 -0.37434357 -0.3895929 0.10855232
0003e0 72 80 40 bf e0 e9 2b 3d 4f b6 e0 be e1 ff df be
       -0.7519599 0.041971087 -0.4388909 -0.43749908
0003f0 8a 5c 1d 3f 81 df e0 be 70 f2 ca 3d b4 4b c9 be
       0.6146933 -0.4392052 0.099095225 -0.3931557

bias f4 [4]
000000 d4 03 0d 3a ef e4 1a 3a 8a 80 c4 39 2c 04 2f 3a
       0.00053792936 0.00059087476 0.00037479802 0.0006676342
